…
CURRENT 1800 [ 0  1  2  8  2  5  6  7  8 10 10 11 12 10 11 11  5 11 11]train {56: <controler.FixControler object at 0x7faf23938af0>, 82: <controler.FixControler object at 0x7faf23938bb0>, 95: <controler.FixControler object at 0x7faf23938c10>, 136: <controler.FixControler object at 0x7faf23938ca0>, 204: <controler.FixControler object at 0x7faf23938d30>, 246: <controler.FixControler object at 0x7faf23938dc0>, 252: <controler.FixControler object at 0x7faf23938e50>, 259: <controler.FixControler object at 0x7faf23938ee0>, 265: <controler.FixControler object at 0x7faf23938f70>, 274: ActorCritic(
  (linear1): Linear(in_features=11376, out_features=100, bias=True)
  (linear2): Linear(in_features=100, out_features=100, bias=True)
  (linear3): Linear(in_features=100, out_features=100, bias=True)
  (actor): Linear(in_features=100, out_features=19, bias=True)
  (critic): Linear(in_features=100, out_features=1, bias=True)
), 296: <controler.FixControler object at 0x7faf239690d0>, 370: <controler.FixControler object at 0x7faf23969160>, 410: <controler.FixControler object at 0x7faf239691f0>, 488: <controler.FixControler object at 0x7faf23969280>, 605: <controler.FixControler object at 0x7faf23969310>, 637: <controler.FixControler object at 0x7faf239693a0>, 660: <controler.FixControler object at 0x7faf23969430>, 834: <controler.FixControler object at 0x7faf239694c0>, 886: <controler.FixControler object at 0x7faf23969550>}
…
reset simulator configure
0 1273.0799999999995
29 19.32 0.0
ここでtest終了
train {56: <controler.FixControler object at 0x7faf23934af0>, 82: <controler.FixControler object at 0x7faf23969640>, 95: <controler.FixControler object at 0x7faf239696a0>, 136: <controler.FixControler object at 0x7faf23969730>, 204: <controler.FixControler object at 0x7faf239697c0>, 246: <controler.FixControler object at 0x7faf23969850>, 252: <controler.FixControler object at 0x7faf239698e0>, 259: <controler.FixControler object at 0x7faf23969970>, 265: <controler.FixControler object at 0x7faf23969a00>, 274: ActorCritic(
  (linear1): Linear(in_features=11376, out_features=100, bias=True)
  (linear2): Linear(in_features=100, out_features=100, bias=True)
  (linear3): Linear(in_features=100, out_features=100, bias=True)
  (actor): Linear(in_features=100, out_features=19, bias=True)
  (critic): Linear(in_features=100, out_features=1, bias=True)
), 296: <controler.FixControler object at 0x7faf23969af0>, 370: <controler.FixControler object at 0x7faf23969d60>, 410: <controler.FixControler object at 0x7faf23969df0>, 488: <controler.FixControler object at 0x7faf23969e80>, 605: <controler.FixControler object at 0x7faf23969f10>, 637: <controler.FixControler object at 0x7faf23969fa0>, 660: ActorCritic(
  (linear1): Linear(in_features=11376, out_features=100, bias=True)
  (linear2): Linear(in_features=100, out_features=100, bias=True)
  (linear3): Linear(in_features=100, out_features=100, bias=True)
  (actor): Linear(in_features=100, out_features=19, bias=True)
  (critic): Linear(in_features=100, out_features=1, bias=True)
), 834: <controler.FixControler object at 0x7faf21f10100>, 886: <controler.FixControler object at 0x7faf21f10190>}
0.0 0 158.64 158.64
0.0 1 111.81 270.45
0.0 2 110.19 380.64
0.0 3 106.92749 487.56747
0.0 4 95.182495 582.75
0.0 5 77.41499 660.165
0.0 6 74.925 735.08997
0.0 7 73.9425 809.0325
0.0 8 68.37 877.4025
0.0 9 65.325 942.7275
0.0 10 63.390003 1006.11755
…
